skipgram_model.pth (torch, 33155 bytes, 2 tensors)

in_embed.weight f4 [401, 10]
0.31066638 0.5007872 -2.915342 1.8052442 -0.6301057 -0.87324774 -1.0490961 -0.6562984
-1.6223564 0.00045109878 -0.018872412 0.75965804 1.3798546 1.9478109 2.3702881 2.4011507
-0.0055824113 0.22273697 -0.867954 1.1031203 0.45444468 -0.5160548 -0.428623 -0.69416445
-1.9826509 -0.48068258 1.7730098 -0.17370392 -2.5369463 1.4755224 2.0377014 3.1652052
2.4226837 -0.13773978 -0.26590237 0.020796807 -1.3881378 0.9801959 0.6593684 0.3551431
-2.9932132 -2.3315997 -2.3709621 -11.906291 -5.382693 3.8963423 -5.354578 3.4534247
2.5095897 -1.3951795 -2.168113 1.1172051 -2.8780575 1.9208155 -0.21416783 -2.0590022
-0.29903075 1.0739304 1.9022943 0.10459999 -3.3140078 -0.6954847 -0.8001494 -0.05450194
-0.54269445 0.5635518 2.0731857 -0.23800519 -2.1232414 -0.433623 0.78180194 0.5612682
0.33443564 -1.6062083 -0.9051054 -3.8704474 -0.34342963 -3.4832368 -0.3122924 0.5100063
0.6241613 1.1076708 -0.16131133 -3.1549542 -1.1709763 1.3623713 2.623866 -0.71868354
-0.1673013 -0.610717 8.161671 2.7801354 -11.524135 7.865351 1.2564378 12.772297
-5.25415 12.424857 -1.456529 -11.419511 -12.4647455 12.084921 -6.9718404 -12.088456
-7.411769 1.1023668 -1.8262914 1.5256048 0.19347943 9.886204 1.5750684 0.046027154
-0.22270757 0.7598662 -0.07666563 -1.8167789 -0.7064336 -0.24977101 1.602068 3.0365376
-0.8921092 1.1785041 -0.23170483 -0.5534049 1.5556166 1.3677084 1.5338666 1.0261638
-1.1808869 2.016357 0.8414408 -1.2768325 0.73210603 -0.15911575 -0.9673366 0.79368347
-2.0481665 -0.3534126 -0.8228009 -0.30241472 7.0891705 -0.20831273 6.012179 -5.0102396
0.9773114 -6.6055913 3.8456001 -0.3329444 6.8725166 -0.121469684 3.9675586 3.771653
0.24697112 4.5863786 4.1886935 4.2627473 3.64928 -8.1051855 2.1353211 0.053093527
-0.06176224 -2.6172147 1.6786046 -0.5604664 -2.4830267 -1.5278026 2.1409967 0.31042537
0.23250894 0.11847567 -0.8094109 1.7630944 -0.6625333 -0.38861406 -0.63743985 -2.4049258
-1.4654675 -1.4326208 0.8258275 0.88427967 2.1725187 0.7117744 -1.3449801 -2.0114627
-0.37598068 1.8270177 -0.73262036 0.7588792 -0.5692625 -0.897135 0.8339776 -0.7021901
0.72475743 1.3366323 -0.46839318 3.3453438 0.98444766 -2.0903451 -0.52947456 1.3046063
-2.081967 0.9202001 0.7051714 -1.2310388 -0.05772893 2.8822477 -2.157362 0.33637717
-1.3045574 -1.2029173 0.9247761 0.34337142 1.0961173 -0.73605186 -3.225645 0.58272964
0.25603488 0.7882784 0.22916092 -3.1374018 -2.5326161 -0.82572985 -1.0859742 -0.62679845
-2.9023464 0.39041424 -1.2500175 1.542815 0.89255154 0.7242502 0.058601797 -2.7001262
-0.92886615 0.031154275 1.118664 0.14315538 -1.9640764 -1.0272423 0.024132175 -1.7686787
0.024450008 -0.39200455 2.9528985 -1.0291787 1.778983 -0.85049653 -2.9567254 -0.1177767
-0.24012195 0.34394988 -1.5300632 3.2971692 0.46640274 -0.9009447 -1.9417083 -0.012570152
00000000: aa0f 9f3e 9733 003f f794 3ac0 3e12 e73f
00000010: 9b4e 21bf 2a8d 5fbf c848 86bf 2c03 28bf
00000020: 60a9 cfbf 7481 ec39 519a 9abc f378 423f
00000030: 139f b03f de51 f93f cdb2 1740 74ac 1940
00000040: a9ec b6bb 2915 643e 3c32 5ebf 0c33 8d3f
00000050: f9ac e83e 2b1c 04bf 7974 dbbe c3b4 31bf
00000060: 81c7 fdbf 071c f6be fcf1 e23f 71df 31be
00000070: 545d 22c0 ebdd bc3f b369 0240 b992 4a40
00000080: 400d 1b40 a80b 0dbe 5b24 88be 115e aa3c
00000090: 80ae b1bf 1eee 7a3f 5ecc 283f 51d5 b53e
000000a0: ce90 3fc0 ee38 15c0 d8bd 17c0 2b80 3ec1
000000b0: 053f acc0 ac5d 7940 b458 abc0 e904 5d40
000000c0: 1e9d 2040 3e95 b2bf 5dc2 0ac0 9400 8f3f
000000d0: 1832 38c0 48dd f53f d04e 5bbe b1c6 03c0
000000e0: 8f1a 99be 8d76 893f 617e f33f 8538 d63d
000000f0: b418 54c0 490b 32bf 97d6 4cbf 6d3d 5fbd
00000100: 06ee 0abf ee44 103f 13af 0440 a2b7 73be
00000110: 30e3 07c0 d503 debe 2c24 483f 46af 0f3f
00000120: 263b ab3e 3c98 cdbf fdb4 67bf 69b5 77c0
00000130: 02d6 afbe 5aed 5ec0 cae4 9fbe c68f 023f
00000140: 09c9 1f3f 28c8 8d3f cc2e 25be c5ea 49c0
00000150: 8de2 95bf 2f62 ae3f 6ced 2740 a5fb 37bf
00000160: 0851 2bbe f357 1cbf 3496 0241 bded 3140
00000170: db62 38c1 f5b0 fb40 f4d2 a03f 545b 4c41
00000180: ff21 a8c0 37cc 4641 8b6f babf 51b6 36c1
00000190: 996f 47c1 d65b 4141 5119 dfc0 516a 41c1
000001a0: 362d edc0 5b1a 8d3f ebc3 e9bf 0547 c33f
000001b0: 791f 463e e42d 1e41 d79b c93f f886 3c3d
000001c0: 740d 64be 9786 423f df02 9dbd 368c e8bf
000001d0: d5d8 34bf f9c3 7fbe 9010 cd3f a256 4240
000001e0: 4561 64bf 39d9 963f 0844 6dbe f2ab 0dbf
000001f0: 721e c73f 1211 af3f be55 c43f 5659 833f
00000200: 4d27 97bf fe0b 0140 aa68 573f 3f6f a3bf
00000210: 4d6b 3b3f 3def 22be 5fa3 77bf d72e 4b3f
00000220: 2915 03c0 7ff2 b4be 14a3 52bf 1ad6 9abe
00000230: 7cda e240 ef4f 55be c563 c040 e253 a0c0
00000240: 1431 7a3f 0161 d3c0 501e 7640 b077 aabe
00000250: a8eb db40 19c5 f8bd 7bec 7d40 c362 7140
00000260: ffe5 7c3e 9dc3 9240 c709 8640 6d68 8840
00000270: ce8d 6940 d7ae 01c1 1aa9 0840 9978 593d
00000280: 67fa 7cbd 7280 27c0 84dc d63f ba7a 0fbf
00000290: e9e9 1ec0 098f c3bf 1706 0940 13f0 9e3e
000002a0: d316 6e3e 5fa3 f23d 8e35 4fbf 14ad e13f
000002b0: c89b 29bf 6cf8 c6be 422f 23bf 4eea 19c0
000002c0: 7094 bbbf 1e60 b7bf 6e69 533f 2760 623f
000002d0: 8c0a 0b40 d936 363f 4f28 acbf cebb 00c0
000002e0: 8a80 c0be b7db e93f 028d 3bbf e845 423f
000002f0: 30bb 11bf a4aa 65bf 8e7f 553f bbc2 33bf
00000300: b489 393f c416 ab3f 3bd1 efbe 1d1a 5640
00000310: c304 7c3f 37c8 05c0 a58b 07bf 57fd a63f
00000320: f33e 05c0 3c92 6b3f 1d86 343f ae92 9dbf
00000330: 2c75 6cbd bf76 3840 3812 0ac0 a139 ac3e
00000340: bdfb a6bf 32f9 99bf 20be 6c3f 61ce af3e
00000350: 924d 8c3f e56d 3cbf f870 4ec0 c52d 153f
00000360: 0117 833e 9dcc 493f 29a9 6a3e 31cb 48c0
00000370: 6216 22c0 0863 53bf 3401 8bbf dd75 20bf
00000380: 0bc0 39c0 60e4 c73e 9300 a0bf f67a c53f
00000390: 427e 643f 7668 393f 7008 703d dece 2cc0
000003a0: 2cca 6dbf 4037 ff3c 6230 8f3f 5397 123e
000003b0: db66 fbbf ad7c 83bf d7b0 c53c 1064 e2bf
000003c0: 624b c83c d2b4 c8be 4afc 3c40 21bc 83bf
000003d0: b7b5 e33f 24ba 59bf fd3a 3dc0 e934 f1bd
000003e0: 87e2 75be 331a b03e 1cd9 c3bf d204 5340
000003f0: 57cc ee3e 50a4 66bf e689 f8bf 0af3 4dbc

out_embed.weight f4 [401, 10]
0.51308405 -0.2691452 -0.16989584 -0.5885622 -1.9309084 1.4423517 0.68743694 2.6601632
0.55591005 0.34149978 1.5228511 1.9958299 -0.34599683 -1.7358593 -0.0980015 -1.9405806
-0.1556885 0.29369402 -0.26059 1.6524992 0.60281247 0.86213017 0.17784233 -2.1173184
1.7714131 0.17608345 0.12177827 1.9087907 1.7396947 -1.7636749 -1.7702361 0.064493105
-1.4376216 -0.7377276 0.7806309 1.1343232 1.7613318 2.1962209 1.691775 -0.029276837
-0.099322505 -2.0209813 1.4830426 -1.4368215 0.26051947 -0.83145636 1.499724 1.5597214
-0.7126268 -0.28130746 -0.72173107 0.96040237 0.020697717 2.0228074 -2.1432328 -0.4804121
-1.3903494 -1.7705482 -0.019031897 -0.28840038 0.01681475 -0.7863491 2.0536916 -1.3357449
1.5482846 -0.6356995 -2.4056475 -0.19740199 -0.25286597 0.39721042 -0.005230894 -1.4402397
1.0924186 0.84663785 -2.3947926 0.20456423 -2.6568513 1.171941 0.4952924 0.046578836
1.1895055 -1.4502823 -2.16987 -0.2881739 -1.0973368 -1.9677839 -0.44410554 1.0514591
0.022027645 -0.96139497 0.2998949 0.17134707 1.1818506 -1.703853 0.92277133 1.5357661
-2.3354692 -0.045890868 1.8393009 -0.1723701 -0.74409777 2.118589 1.8004938 -1.1018443
1.112348 -0.21197028 0.9049889 -1.529239 -1.2617574 0.8080406 1.5131747 -1.0656234
1.9174049 0.27643842 1.1212617 -1.002182 -0.028323766 1.8196744 -1.9749044 0.99401075
0.69969887 1.9714879 -0.26812446 1.1351098 -1.1361021 1.738576 1.0325938 0.84029746
-1.7760059 1.7879481 0.41497856 0.6772715 -0.15169889 -2.5424933 -1.5101863 -0.61720103
2.1923354 -0.17303267 -2.3774729 1.1466058 -2.0705748 -0.03234198 -0.5123193 -1.4735677
-0.5083928 0.332054 2.5479684 1.8845404 0.20975259 -0.2789914 -0.5965429 -1.6719916
-2.7420378 0.6684558 -0.13199198 1.1775371 -0.4861564 1.7014016 1.195541 1.3477025
0.9372561 2.310004 -0.45459035 -0.5042918 1.9044987 -0.21387152 -0.77847886 1.0660651
-1.8510432 1.3006821 -0.3931897 -0.03550458 -0.4487358 -1.1687472 -2.0955348 3.061356
1.4735252 -0.71452653 1.0885895 -0.9519453 -0.9283278 -1.2450475 -0.8976638 -1.228489
0.8925068 1.8804014 1.6076615 1.6740874 0.7035222 -0.53987736 -0.8333432 -1.7192361
-1.1807642 2.0512674 0.8308082 0.19876432 1.9594492 -1.4157583 0.064592 -1.2034972
-1.6794306 -1.5885456 -0.5651565 0.5592611 0.10914153 -0.9284426 -0.36579466 2.2315257
0.8204662 -1.4131843 0.20117876 0.3645178 1.0226246 -0.7566019 -1.1157542 -0.27553183
0.06436773 2.0060937 -1.0043964 1.7804441 0.30710804 -2.5529401 0.5488227 -0.051998764
0.7849567 0.31600174 -1.3387053 0.9390223 0.5777626 1.5742322 1.498694 0.29295078
-0.06367923 0.08953114 -2.3109975 0.5532926 0.4819442 -1.4066046 -0.11487429 1.9158216
-0.036236543 -0.051640946 -0.08305329 -0.1182057 -0.030536337 0.15464987 -0.115991704 0.049275544
0.100107476 0.040883414 -1.223901 -0.5072444 2.122272 2.3068142 0.03942247 2.020742
00000000: 7a59 033f 66cd 89be 2df9 2dbe 03ac 16bf
00000010: 0228 f7bf fb9e b83f defb 2f3f 1d40 2a40
00000020: 1f50 0e3f 0fd9 ae3e c9ec c23f 5b77 ff3f
00000030: 7f26 b1be a330 debf 03b5 c8bd f264 f8bf
00000040: ce6c 1fbe 105f 963e 0d6c 85be 1885 d33f
00000050: eb51 1a3f 90b4 5c3f 4d1c 363e 2582 07c0
00000060: aabd e23f 384f 343e e366 f93d 4153 f43f
00000070: 51ae de3f 19c0 e1bf 1997 e2bf f614 843d
00000080: fc03 b8bf b7db 3cbf 6dd7 473f 8131 913f
00000090: 5273 e13f e28e 0c40 158c d83f fad5 efbc
000000a0: 9969 cbbd c257 01c0 57d4 bd3f c4e9 b7bf
000000b0: cf62 853e 53da 54bf f5f6 bf3f f3a4 c73f
000000c0: b66e 36bf 8807 90be 5ec3 38bf eedc 753f
000000d0: 428e a93c ad75 0140 ba2a 09c0 93f8 f5be
000000e0: f8f6 b1bf 53a1 e2bf c8e8 9bbc 37a9 93be
000000f0: 16bf 893c 2d4e 49bf af6f 0340 b0f9 aabf
00000100: 312e c63f 34bd 22bf 21f6 19c0 bf23 4abe
00000110: a677 81be 2a5f cb3e eb67 abbb c659 b8bf
00000120: 5fd4 8b3f 42bd 583f 4844 19c0 4979 513e
00000130: da09 2ac0 2a02 963f f796 fd3e 73c9 3e3d
00000140: b741 983f daa2 b9bf 26df 0ac0 888b 93be
00000150: 8875 8cbf 58e0 fbbf cd61 e3be 3696 863f
00000160: 5273 b43c fb1d 76bf d38b 993e 9b75 2f3e
00000170: e146 973f db17 dabf be3a 6c3f fc93 c43f
00000180: 5478 15c0 10f8 3bbd 366e eb3f ca81 30be
00000190: 317d 3ebf f696 0740 9576 e63f 3c09 8dbf
000001a0: 6b61 8e3f bd0e 59be 5aad 673f 1bbe c3bf
000001b0: 4481 a1bf c0db 4e3f b5af c13f 5966 88bf
000001c0: 866d f53f 5689 8d3e 8185 8f3f 8047 80bf
000001d0: 3e07 e8bc 17eb e83f abc9 fcbf 7d77 7e3f
000001e0: 771f 333f b759 fc3f 9c47 89be 474b 913f
000001f0: cb6b 91bf a989 de3f 092c 843f bc1d 573f
00000200: 2954 e3bf 7cdb e43f 1278 d43e aa61 2d3f
00000210: f456 1bbe 36b8 22c0 c94d c1bf e300 1ebf
00000220: 394f 0c40 7a2f 31be 8428 18c0 fbc3 923f
00000230: 4c84 04c0 0679 04bd 5c27 03bf de9d bcbf
00000240: 0826 02bf fb02 aa3e ea11 2340 9f38 f13f
00000250: 62c9 563e f6d7 8ebe 09b7 18bf d203 d6bf
00000260: 8c7d 2fc0 eb1f 2b3f e828 07be 89b9 963f
00000270: 7ee9 f8be 87c7 d93f 7d07 993f 8481 ac3f
00000280: 04f0 6f3f 1bd7 1340 11c0 e8be 4419 01bf
00000290: 9dc6 f33f 2301 5bbe 644a 47bf d274 883f
000002a0: fcee ecbf c07c a63f 2950 c9be 406d 11bd
000002b0: b3c0 e5be 8299 95bf 3e1d 06c0 42ed 4340
000002c0: 799c bc3f 36eb 36bf e756 8b3f b0b2 73bf
000002d0: e4a6 6dbf b75d 9fbf 4bcd 65bf 213f 9dbf
000002e0: 537b 643f feb0 f03f dac7 cd3f 7f48 d63f
000002f0: 081a 343f 6735 0abf fb55 55bf ee0f dcbf
00000300: 4823 97bf f747 0340 d9af 543f e088 4b3e
00000310: 3bcf fa3f 9137 b5bf cf48 843d 320c 9abf
00000320: 95f7 d6bf 7655 cbbf 19ae 10bf bc2b 0f3f
00000330: 9885 df3d 6aae 6dbf 7049 bbbe 51d1 0e40
00000340: 130a 523f 39e3 b4bf ce01 4e3e 14a2 ba3e
00000350: 5de5 823f aab0 41bf 09d1 8ebf 8212 8dbe
00000360: 3ad3 833d d763 0040 1090 80bf 98e5 e33f
00000370: 443d 9d3e 5f63 23c0 a57f 0c3f a8fc 54bd
00000380: ecf2 483f fbca a13e b25a abbf c463 703f
00000390: 40e8 133f 7180 c93f 34d5 bf3f a5fd 953e
000003a0: 426a 82bd 1a5c b73d 62e7 13c0 95a4 0d3f
000003b0: 64c1 f63e 9f0b b4bf 3643 ebbd a439 f53f
000003c0: c56c 14bd 7585 53bd d817 aabd d415 f2bd
000003d0: 5727 fabc 895c 1e3e 0f8d edbd 27d5 493d
000003e0: 2605 cd3d 5e75 273d caa8 9cbf c5da 01bf
000003f0: 4ed3 0740 d8a2 1340 7579 213d d653 0140
