skipgram_model.pth (torch, 33155 bytes, 2 tensors)

in_embed.weight f4 [401, 10]
2.6880164 1.2559559 1.6715596 2.0785298 -0.71546924 -0.13655435 -5.833541 -4.100988
-2.2063568 3.9682145 1.7233343 -0.368244 -1.9765915 0.22174253 1.9240654 -0.24497107
2.7025023 0.01816442 -0.090952605 -2.006555 0.010386928 -0.5939364 -1.5385555 -0.0205995
-0.07019895 2.2125642 -0.59943944 -1.3390399 3.0278296 1.6482819 -5.11276 -2.6629956
-4.0633636 6.2253237 -1.8391463 -4.0834975 -0.14631611 -4.824281 -5.6601486 -7.841405
-3.3134024 -0.8607016 -1.7067951 -0.030855836 -1.5183228 -1.755612 -0.94296104 -1.4912468
-0.107963905 0.110458456 0.02144611 1.5635892 1.0075057 -0.4912588 0.27077788 -1.5409603
-1.2157615 -2.0186388 0.015729202 -1.126368 0.3711962 1.6256607 -1.1105832 -3.379345
-1.8678572 0.6055014 0.59150034 -2.4998622 0.7398338 2.149483 -1.1489116 2.1250877
1.4848979 -10.833054 -19.412844 3.9206805 14.453899 -0.07243671 -7.445555 14.169701
1.7537452 -0.846993 0.39543614 3.3185513 0.7028216 1.2492175 0.429674 1.2394781
-1.0524871 0.888563 -2.3557034 0.024683828 2.2015166 -0.85927147 -1.2010063 2.4272926
-0.5938088 1.1672218 -0.9849249 -0.8251083 -2.1049836 1.7862309 6.1494923 0.5703965
3.793378 0.8724929 -3.7985518 -0.545052 -0.53753656 3.9873033 0.11334263 0.6567235
0.008693732 -3.0418422 -2.8719983 -0.4573393 0.6908839 0.01845565 0.0025705127 0.66337186
-5.8895216 -2.9535875 0.32249123 -16.744125 1.6178814 5.5973587 0.46879232 -0.43034825
-17.395607 -15.060221 0.03586509 0.11778067 1.8316848 -0.72281295 0.35200843 -2.3834076
-0.8581192 1.4948972 3.1567538 0.04685802 -10.429874 4.009024 -0.4353555 -19.073048
3.015618 -5.8785944 8.17733 21.60534 -10.912397 3.862991 0.29008514 -1.7331454
0.5522394 1.3329425 1.4181175 -0.025038844 -0.51466566 0.7553666 1.5159562 -1.9298295
1.1391081 -1.9786426 -0.06848632 -0.5411425 -0.11302465 -0.25997767 1.0801618 1.7014163
2.5938938 -0.77858716 3.332074 -1.730759 0.8346733 -2.1696596 -0.20276234 0.8611644
-0.253293 -0.7195698 0.49644312 -1.1386735 -0.97229123 0.10507116 -3.4666204 0.5938278
1.0735481 -0.2036138 0.33974013 1.3071606 -1.4726357 -0.4865872 -11.873038 3.8061647
6.0317307 -3.6141372 3.2296507 0.3709978 -0.040228873 -0.09442402 -3.6997035 -1.1088808
1.7165112 0.30836505 -1.279094 -0.07596278 -0.9234004 0.90608466 -1.0777704 -2.6023164
-2.555408 -1.309252 -1.5437835 -2.0394547 -0.03857693 0.43668947 2.0119257 -0.65841585
-0.7226424 -1.697546 1.0897335 -0.92554194 3.2460573 0.29074165 2.7641058 0.50895107
-1.269092 -0.49474338 -1.0332842 -2.5786436 -1.9719561 0.46840996 3.1536484 -1.7513884
0.22830527 -1.8494719 0.5990473 -2.798931 -0.34235138 0.10655318 0.4212503 0.51502854
-0.431322 -0.023378469 0.8295656 0.21375135 3.521614 0.100158684 0.6678237 -0.46775252
1.7470579 1.4453863 -1.2705323 1.2562461 0.7261191 1.4020809 2.0956752 0.317241
00000000: 7608 2c40 2ac3 a03f aaf5 d53f a206 0540
00000010: fe28 37bf e7d4 0bbe 5eac bac0 4b3b 83c0
00000020: f334 0dc0 3af7 7d40 3896 dc3f 7a8a bcbe
00000030: f300 fdbf 7910 633e c647 f63f b2d9 7abe
00000040: ccf5 2c40 8dcd 943c 5c45 babd 666b 00c0
00000050: ef2d 2a3c 370c 18bf 63ef c4bf 48c0 a8bc
00000060: 78c4 8fbd a79a 0d40 dd74 19bf a965 abbf
00000070: f6c7 4140 e7fa d23f bb9b a3c0 856e 2ac0
00000080: 1307 82c0 da35 c740 2569 ebbf 03ac 82c0
00000090: e4d3 15be 8360 9ac0 f01f b5c0 caec fac0
000000a0: c90e 54c0 f156 5cbf 4378 dabf 61c5 fcbc
000000b0: 6758 c2bf e5b7 e0bf e565 71bf 2de1 bebf
000000c0: 2e1c ddbd 0b38 e23d c1af af3c b123 c83f
000000d0: f2f5 803f 4686 fbbe 66a3 8a3e 303e c5bf
000000e0: 139e 9bbf 6131 01c0 87da 803c d42c 90bf
000000f0: 6e0d be3e a615 d03f 9727 8ebf 3047 58c0
00000100: f215 efbf 2402 1b3f 916c 173f befd 1fc0
00000110: bf65 3d3f 2191 0940 890f 93bf 7001 0840
00000120: 2211 be3f 3054 2dc1 814d 9bc1 6eec 7a40
00000130: 2c43 6741 b359 94bd fd41 eec0 18b7 6241
00000140: b97a e03f 89d4 58bf 9b76 ca3e 2563 5440
00000150: 1eec 333f 5ce6 9f3f 3bfe db3e 38a7 9e3f
00000160: e6b7 86bf dd78 633f d8c3 16c0 bd35 ca3c
00000170: a6e5 0c40 37f9 5bbf 93ba 99bf c358 1b40
00000180: db03 18bf 8667 953f 0a24 7cbf 4c3a 53bf
00000190: 0db8 06c0 37a3 e43f a4c8 c440 8105 123f
000001a0: b5c6 7240 b25b 5f3f 791b 73c0 8788 0bbf
000001b0: ff9b 09bf fa2f 7f40 2e20 e83d 081f 283f
000001c0: 2870 0e3c 8bad 42c0 d2ce 37c0 6028 eabe
000001d0: c4dd 303f 4e30 973c 0c76 283b bdd2 293f
000001e0: f676 bcc0 9407 3dc0 921d a53e f8f3 85c1
000001f0: bd16 cf3f 901d b340 8c05 f03e 9b56 dcbe
00000200: 342a 8bc1 aaf6 70c1 46e7 123d fe36 f13d
00000210: a674 ea3f 450a 39bf 733a b43e c089 18c0
00000220: b3ad 5bbf cb58 bf3f 4108 4a40 32ee 3f3d
00000230: c4e0 26c1 ed49 8040 ebe6 debe 9a95 98c1
00000240: e3ff 4040 721d bcc0 58d6 0241 bcd7 ac41
00000250: 2e99 2ec1 3f3b 7740 0a86 943e b5d7 ddbf
00000260: 905f 0d3f dc9d aa3f e084 b53f 431e cdbc
00000270: 21c1 03bf b55f 413f da0a c23f a704 f7bf
00000280: 4bce 913f 2944 fdbf 8e42 8cbd 5188 0abf
00000290: 7879 e7bd cb1b 85be be42 8a3f 02c8 d93f
000002a0: 5b02 2640 7d51 47bf b340 5540 8389 ddbf
000002b0: 26ad 553f b4db 0ac0 eea0 4fbe 4575 5c3f
000002c0: 9faf 81be ba35 38bf cb2d fe3e 0ec0 91bf
000002d0: 14e8 78bf 8c2f d73d 1cdd 5dc0 1905 183f
000002e0: 066a 893f 2380 50be 6bf2 ad3e 0a51 a73f
000002f0: 547f bcbf f521 f9be f7f7 3dc1 3498 7340
00000300: f003 c140 064e 67c0 99b2 4e40 6cf3 bd3e
00000310: 08c7 24bd 6161 c1bd f1c7 6cc0 ceef 8dbf
00000320: a4b6 db3f 06e2 9d3e 5ab9 a3bf 6092 9bbd
00000330: f863 6cbf 2af5 673f 61f4 89bf 5a8c 26c0
00000340: ce8b 23c0 9295 a7bf b39a c5bf 6d86 02c0
00000350: d802 1ebd c395 df3e 64c3 0040 f18d 28bf
00000360: 18ff 38bf 3049 d9bf 637c 8b3f 51f0 6cbf
00000370: 67bf 4f40 17dc 943e 1ce7 3040 9e4a 023f
00000380: 9b71 a2bf 014f fdbe a842 84bf 7f08 25c0
00000390: 0f69 fcbf 6ed3 ef3e 60d5 4940 7f2d e0bf
000003a0: dbc8 693e 7fbb ecbf 2a5b 193f af21 33c0
000003b0: ae48 afbe 8e38 da3d 1fae d73e e9d8 033f
000003c0: 3dd6 dcbe 3484 bfbc 695e 543f a2e1 5a3e
000003d0: 2062 6140 ff1f cd3d 7ef6 2a3f 427d efbe
000003e0: 989f df3f 6b02 b93f cda0 a2bf accc a03f
000003f0: f1e2 393f 6377 b33f 8b1f 0640 6a6d a23e

out_embed.weight f4 [401, 10]
2.3077617 -0.6604067 0.46591523 1.441258 0.93653715 -0.06110466 1.5282481 -1.7393866
-1.8084573 -0.6839001 -2.0292983 -1.4358385 -0.57121617 -0.8438116 0.29781947 2.6203232
-0.91044587 0.23700292 -1.3077613 0.5608209 -0.45753735 1.0123936 -2.1231987 0.021092845
-0.8364793 2.2335677 -0.14892872 0.9896172 1.2641065 1.3508307 1.6972873 -0.25219813
0.20879292 -1.080414 2.1141946 -0.15759097 -0.88385504 -1.2898124 1.4711884 0.21138227
-0.7559866 1.1430191 -1.4799134 1.3623713 -1.8682103 0.451199 1.3733293 0.42691398
1.3188096 -1.5282655 1.9622272 -1.9757664 1.6431148 -1.4218802 -0.055797882 0.54372436
-1.6837239 0.63002115 -0.28191087 -0.66618574 0.35371226 0.060931332 2.6070678 -0.13894497
-0.13452034 -1.0892864 1.5854987 0.6563996 -0.7048617 1.0103548 0.22567523 0.7954632
-0.11580542 -2.787151 0.23956765 0.31429467 -1.762865 -1.0849464 0.9452958 -1.3505781
1.6424774 -2.2309725 -0.70950973 0.30970478 -1.7725718 -1.4262729 -1.5491967 0.010175333
0.48253432 -1.5007809 -1.8500409 0.22831292 1.6476792 0.1219546 -2.0566742 -2.4689841
-0.9658387 -0.6821849 0.6967728 -1.0095649 -1.2354102 -1.9781535 1.3747455 -1.6223392
2.1227677 -0.60601616 -1.0551603 0.33642146 -2.0712047 0.33397532 2.3391328 2.8563433
-1.0035528 -1.09918 2.3129387 -0.72798115 -0.3848504 -1.1172321 1.0911088 1.3903896
0.97373515 1.1085684 0.2088684 -0.9329995 0.5545469 -1.8947046 -1.5203198 -2.760222
1.5266544 -1.6604165 -1.0763998 0.21207453 -1.0850493 -1.2508221 2.1628003 -1.6533267
1.6503342 -2.0327106 -0.8012503 -0.042507123 -1.4274298 0.45029956 0.9358145 -0.0014258436
1.6700531 1.4075214 1.017946 -1.6897228 2.652403 0.40431738 1.3364232 0.37245843
-2.5653553 1.0267276 -0.61732006 0.46688738 2.2718718 1.908119 0.20902477 1.0886244
-1.3699869 2.8245814 -0.42807966 1.3977839 -0.94660044 -0.79849267 -0.388971 -1.172264
-0.7605842 -0.58390194 -0.034892187 0.03760486 0.013225597 -0.014904941 -0.07688926 0.13231224
-0.061267164 0.020202989 -0.12965462 -0.021968186 1.155609 -0.3950401 -1.8682089 0.72799647
1.4766568 0.6848982 2.1099653 0.074863166 -0.8215706 -1.9136516 -1.1272467 -0.45734882
-1.3620446 -0.35693058 -2.40322 -0.78351444 -0.7700064 0.3732045 -1.722805 2.3425963
-0.9882496 0.54988784 1.3443134 -0.079634756 1.6639727 -1.483659 0.22544947 0.25861973
0.4586717 -1.002542 -2.1243844 -0.23221192 0.2597841 2.6026084 -1.1208775 -0.40381864
1.9944664 1.2025297 -0.031169407 1.3481286 1.132427 1.6153446 -1.4328767 2.2682123
-1.0800722 1.7799954 1.2855802 1.1732535 -0.59568024 -0.5839796 0.16731136 0.9680705
-2.068825 0.025381133 -2.08241 1.5381105 -0.7230809 0.9243795 1.0032195 1.3103936
0.3973561 1.2251036 -0.57438433 -1.3116491 2.0005608 -0.9725473 -1.2840903 0.68692297
-0.6035275 0.7353805 -0.034892056 0.03760489 0.0132256765 -0.014904868 -0.076889254 0.13231248
00000000: 5eb2 1340 6a10 29bf 718c ee3e 247b b83f
00000010: e6c0 6f3f e148 7abd a29d c33f 38a4 debf
00000020: 877b e7bf 1414 2fbf 06e0 01c0 8ec9 b7bf
00000030: 393b 12bf 0904 58bf cb7b 983e 60b3 2740
00000040: fb12 69bf e5b0 723e b964 a7bf f591 0f3f
00000050: 5642 eabe 1d96 813f 7de2 07c0 e7ca ac3c
00000060: 8223 56bf c6f2 0e40 c580 18be 8e57 7d3f
00000070: 3ece a13f 05e8 ac3f b640 d93f 1d20 81be
00000080: d0cd 553e 024b 8abf f74e 0740 875f 21be
00000090: 5344 62bf 9318 a5bf e74f bc3f 9874 583e
000000a0: 5688 41bf 734e 923f cd6d bdbf 2f62 ae3f
000000b0: 8421 efbf 8e03 e73e 41c9 af3f 7894 da3e
000000c0: c1ce a83f 349e c3bf 432a fb3f eae5 fcbf
000000d0: 9651 d23f 2c00 b6bf 528c 64bd 8531 0b3f
000000e0: 4484 d7bf 1149 213f 9f56 90be 268b 2abf
000000f0: c619 b53e 2293 793d 33da 2640 9747 0ebe
00000100: b3bf 09be bd6d 8bbf 9ff1 ca3f ce09 283f
00000110: d171 34bf 4e53 813f 6817 673e 7aa3 4b3f
00000120: 642b edbd af60 32c0 3951 753e 3beb a03e
00000130: 8fa5 e1bf 86df 8abf e8fe 713f bedf acbf
00000140: b33c d23f 41c8 0ec0 6ea2 35bf a091 9e3e
00000150: a2e3 e2bf 1c90 b6bf 144c c6bf 71b6 263c
00000160: bd0e f73e 9719 c0bf 24ce ecbf ddca 693e
00000170: 27e7 d23f 55c3 f93d 8da0 03c0 d603 1ec0
00000180: 3441 77bf aba3 2ebf b45f 323f 6c39 81bf
00000190: ec21 9ebf 2234 fdbf a9f7 af3f d0a8 cfbf
000001a0: 6ddb 0740 e023 1bbf 7e0f 87bf 6f3f ac3e
000001b0: 9e8e 04c0 d0fe aa3e 5ab4 1540 54ce 3640
000001c0: 6b74 80bf eeb1 8cbf 3007 1440 f95c 3abf
000001d0: 1d0b c5be 7601 8fbf 74a9 8b3f 49f8 b13f
000001e0: b546 793f 92e5 8d3f 99e1 553e 0ed9 6ebf
000001f0: c9f6 0d3f ae85 f2bf d799 c2bf 7aa7 30c0
00000200: 6969 c33f 8788 d4bf 78c7 89bf 112a 593e
00000210: e5e2 8abf f01a a0bf 526b 0a40 36a0 d3bf
00000220: 273e d33f ee17 02c0 bd1e 4dbf f31b 2ebd
00000230: 05b6 b6bf aa8d e63e 8a91 6f3f 5fe3 baba
00000240: 4dc4 d53f a929 b43f 0e4c 823f d648 d8bf
00000250: f9c0 2940 b002 cf3e ea0f ab3f dfb2 be3e
00000260: c82e 24c0 cf6b 833f b008 1ebf dd0b ef3e
00000270: 5966 1140 3e3d f43f 970a 563e 0b58 8b3f
00000280: bb5b afbf f1c5 3440 422d dbbe 95ea b23f
00000290: 6854 72bf 046a 4cbf 3527 c7be bf0c 96bf
000002a0: a5b5 42bf 997a 15bf 1ceb 0ebd 8e07 1a3d
000002b0: 2db0 583c db33 74bc 1e78 9dbd dc7c 073e
000002c0: 47f3 7abd bd80 a53c 2ec4 04be a0f6 b3bc
000002d0: ffea 933f b242 cabe 7821 efbf fa5d 3a3f
000002e0: 1703 bd3f 7d55 2f3f ac09 0740 dc51 993d
000002f0: 7352 52bf 89f2 f4bf 9f49 90bf a029 eabe
00000300: 7a57 aebf 9bbf b6be 5bce 19c0 6794 48bf
00000310: 241f 45bf a914 bf3e e084 dcbf 19ed 1540
00000320: edfd 7cbf 73c5 0c3f 7612 ac3f 8c17 a3bd
00000330: 0ffd d43f 8ae8 bdbf 3adc 663e ce69 843e
00000340: 04d7 ea3e 4c53 80bf eaf5 07c0 f6c8 6dbe
00000350: 6c02 853e 2391 2640 ea78 8fbf 51c1 cebe
00000360: ad4a ff3f 7eec 993f fc56 ffbc 7a8f ac3f
00000370: 5ef3 903f 9dc3 ce3f 8168 b7bf 642a 1140
00000380: ce3f 8abf e4d6 e33f e48d a43f 2c2d 963f
00000390: 807e 18bf b07f 15bf ab53 2b3e 78d3 773f
000003a0: a167 04c0 18ec cf3c 3546 05c0 cee0 c43f
000003b0: d41b 39bf 23a4 6c3f 7f69 803f faba a73f
000003c0: 4272 cb3e 32d0 9c3f da0a 13bf 1ee4 a7bf
000003d0: 3009 0040 dcf8 78bf 125d a4bf 2fda 2f3f
000003e0: c780 1abf e541 3c3f f9ea 0ebd 9607 1a3d
000003f0: 82b0 583c 8c33 74bc 1d78 9dbd ec7c 073e
